model/trained_model.pth (torch, 43169 bytes, 14 tensors)

layer1.0.weight f4 [64, 20]
00000000: b8c2 5c3d d5f8 8a3d 4bab cf3d aff9 d8bd
00000010: f9a6 283e 9dbd f1bc b8ce 053d 5707 db3d
00000020: 6f23 ee3d b106 653e 21b3 11bd 9d5b 46be
00000030: d387 11be 8b7c 15be dbcd 97bd 6984 173d
00000040: 2965 f63b 9e78 ccbc 85be 783d 4c88 6a3e
00000050: 127a a23c 1b61 793c 33ae 2e3d 862a e83c
00000060: e04b e83d 69a2 ea3d a2b6 11bd b17c da3d
00000070: 2ded d73d e1df e43d 416e cbbc 4901 f03d
00000080: d5e2 0ebe ec2c f23d 849a 84be ba1e e2bb
00000090: f81a 54ba 6374 9fbd 4f6b 623c 5fd3 733d
000000a0: b0ef 3b3d 7819 3c3d 2505 903c dad0 bd3c
000000b0: 4139 483e 4293 463e 451f ac3c b486 eebc
000000c0: dd9c 81bc b0ea 59bc ff4c c33c 1003 103d
000000d0: ac87 ad3d 6f2b 1b3d 11f2 aebe 8c6f 68bc
000000e0: 3c75 0ebc 5271 a2bd 67b3 483d 78cf ce3d
000000f0: 6cee 17bd 523b 21bd 0f07 b23d 2efa c93d
00000100: 9e6e 74bd f2be 0abd b2f4 29bd 3506 c43c
00000110: 2ceb fcbc f072 1abd c771 173d 9769 103c
00000120: dd4a 813d acab 163c 7306 b93e 9277 bf3c
00000130: b896 0a3c efaf 363e eec1 04bd b490 2abe
00000140: 0ef1 2bbd 3d77 12bd c503 7abc 1a98 25ba
00000150: 66bd 253e dac6 3d3e 2612 283d c00e 053d
00000160: e93e 473d d2d8 403d cb70 8d3c 5866 aa3a
00000170: de57 ce3c 581a 68bb ea5b b23e 735c 563c
00000180: 1fc8 2a3c 64e1 c63d 0e0f c3bc 0c62 dabd
00000190: 7ecf 063c b96e 023c 5023 413d 31aa bd3c
000001a0: b774 583d e909 fa3c 57a4 17bd 1cfa 3e3e
000001b0: e9a1 adbd b24d 8b3d b136 553e 8a9b fb3d
000001c0: a7cd 4d3e e23a f33c dca4 94be 3110 8c3d
000001d0: bf71 aabc f1ff cbbd 508e a9bd 6d16 f03d
000001e0: fde4 33be 536f 2cbe 8977 37be 57e4 26be
000001f0: 658f 97bd a6c0 69bd aaa2 283d abac b93c
00000200: 2eb1 2c3d 111a 373d dbee e23c 9d44 763c
00000210: 938b 0f3d bec7 8a3c cae0 b23e 4538 cb3b
00000220: e6e6 d239 b879 6e3d afcb 53bc 0a5e 06bd
00000230: bb30 a03c 73b0 b13c c52f ba3d 4b7c 9f3d
00000240: a1e7 a73d 5a8e b13d 8471 0b3c 55c9 ba3c
00000250: 11ff 943c 61f5 e13c 9847 74bd e245 1d3d
00000260: f859 813b 4c4b 0dbe 2348 74be 50fb 743c
00000270: 3479 073c 9cec 26bd 540c 18bd 70d4 1e3e
00000280: e948 1b3e 738e 443e b5ee 35bd 361e e9bd
00000290: bb98 e43d 98cb 73be 8f6d 3d3e a88d 98be
000002a0: 812b 903d f707 0cbe 4902 c7bd 2991 bb3c
000002b0: 2f43 f03d a692 0c3e 1c30 45bc 13c6 083c
000002c0: aa73 ab3c 5b21 423e d96d 933d cad1 c1bd
000002d0: f117 43bd 864a 9bbc f0a6 3d3d 8533 d53d
000002e0: 3baa 813d 82e7 363d 1e34 cd3d 3133 89bd
000002f0: b15c 29bd e293 e23d 8866 133e e199 973d
00000300: fd61 133e aac0 3a3e ac89 25be a2a0 f9bc
00000310: 3cd3 9abc 309c 913e e52b 5c3b 5b74 0abe
00000320: bb7f 9439 3931 3dbb e105 81bd be9c c9bd
00000330: 98db 393b 2b29 8fbd 6670 b4bd 78b2 c93d
00000340: cb35 cd3c 5018 263e aacf 3b3d c194 a0bd
00000350: 37c0 06be 7c9e 62be 2c06 563e e9b1 c8bb
00000360: 66e5 4dbc f65f 8abe 9201 423d d9e9 403e
00000370: 4b69 26be 91d4 38be 1b86 11bc 1da4 163d
00000380: 53a8 cbbd 122f 7d3e 0569 503c 045f 993e
00000390: 83d5 aabd 9780 eebd 6ad7 9f3a a315 59be
000003a0: 64b3 4a3e 30b4 3abe 28f1 b93d 5f5d 82bd
000003b0: f460 953d c926 25be 0145 c53d 4377 283e
000003c0: b489 c3bd fe38 ccbd 5c51 853d 8ff7 93bc
000003d0: 0378 f8bd 92d5 0bbe 796a b9bc efbb b2bd
000003e0: cf91 933e ec3a 65bd 1638 d73d b293 d23d
000003f0: 28ca f73d 77b7 f33d 17f9 2dbe cf22 133d
0.053896636 0.06785742 0.101400934 -0.10594498 0.16469945 -0.02950936 0.032667845 0.10694759
0.11627852 0.22365834 -0.03557122 -0.19370885 -0.14211969 -0.1459829 -0.07412311 0.03699151
0.0075193834 -0.024959859 0.06072857 0.22903556 0.019833598 0.015220906 0.042646598 0.02834059
0.11342597 0.114567585 -0.035574563 0.10668314 0.105432846 0.11175514 -0.024832847 0.11718995
-0.13953717 0.118249744 -0.25899136 -0.0069006355 -0.0008091177 -0.07785871 0.01381953 0.05952775
0.04588288 0.045922726 0.017580578 0.023170877 0.1955309 0.19392112 0.021011004 -0.029116966
-0.015821869 -0.013300583 0.023840426 0.03515917 0.08473143 0.03788322 -0.34169057 -0.014186751
-0.008694943 -0.079317704 0.048999216 0.10098165 -0.03709261 -0.039363213 0.086927526 0.09862171
-0.059675805 -0.033873506 -0.041493125 0.023928741 -0.030873857 -0.03770727 0.03697374 0.008814237
0.06313107 0.009196203 0.36137733 0.023372445 0.008458786 0.17840551 -0.03241151 -0.16656762
-0.041977935 -0.035758246 -0.015259688 -0.00063169154 0.16185531 0.18532887 0.041032933 0.03248477
0.04864398 0.047081776 0.017265698 0.0013000472 0.025188383 -0.0035416093 0.3483575 0.013083565
0.010423689 0.097109586 -0.02381089 -0.10663232 0.008228181 0.007960969 0.047152817 0.023152443
0.052845683 0.030522304 -0.03702196 0.18650097 -0.084781475 0.068019286 0.20821644 0.12285526
0.20097981 0.029691163 -0.29032028 0.06839026 -0.020806191 -0.09960926 -0.08279097 0.117230274
-0.17567821 -0.16839342 -0.17916693 -0.16298042 -0.07400397 -0.05706849 0.041170754 0.022665342
0.04216116 0.044702593 0.027701786 0.015031007 0.035045218 0.016940948 0.34937125 0.006201776
0.00040226354 0.05822155 -0.01292698 -0.032804526 0.019554486 0.021690583 0.090911426 0.07787379
0.081984766 0.086697295 0.008510951 0.02280108 0.018188031 0.027582826 -0.05963859 0.038396724
0.0039474927 -0.13798255 -0.23855643 0.014952496 0.008268643 -0.040752992 -0.037121132 0.15510726
0.15164532 0.19194965 -0.044417102 -0.113827154 0.111619435 -0.23808134 0.18498825 -0.29795575
0.07039548 -0.13674913 -0.09717233 0.022896366 0.11731564 0.13727817 -0.012035396 0.008348006
0.020929176 0.18958037 0.07198686 -0.09463842 -0.047630254 -0.018956434 0.046301782 0.10410217
0.06331297 0.044654377 0.10019706 -0.06699217 -0.041348163 0.11063363 0.14394581 0.07402397
0.14392848 0.18237558 -0.16165799 -0.030472104 -0.018899553 0.28439474 0.00335955 -0.13520949
0.00028323926 -0.002886845 -0.062999494 -0.09844349 0.0028359648 -0.06990274 -0.08810501 0.09848493
0.025050065 0.16220212 0.04585234 -0.078408726 -0.13159262 -0.2213077 0.20900792 -0.006124724
-0.0125669 -0.27026337 0.04736478 0.18839206 -0.16251104 -0.18049838 -0.008882071 0.036777604
-0.09944215 0.24724987 0.012720351 0.29955304 -0.083415054 -0.1164562 0.0012194936 -0.2119966
0.19794995 -0.18232799 0.090792 -0.063654654 0.07293883 -0.16128077 0.09632302 0.16451745
-0.09547749 -0.09971808 0.06509659 -0.018062381 -0.121322654 -0.1365569 -0.022633778 -0.08727252
0.2882218 -0.055964395 0.105087444 0.10282077 0.12099105 0.119002275 -0.16989551 0.035921868

layer1.0.bias f4 [64]
00000000: d425 4abe 856e 623e 20b7 ae3d 84e9 0fbe
00000010: f9a7 be3c cc80 153c 8961 0dbe 73c1 033d
00000020: 3b64 2b3c ccd1 403e f078 183e 44dd 08bd
00000030: 4250 d8bc 690e 16ba 922e eb3d bab1 103d
00000040: 64c7 0fba 5f49 37be ac92 943b 3bd0 0cbe
00000050: fe3e 97bd d310 2ebe e9f9 213e e0ac a13c
00000060: 36f3 cc3d 97c8 dabd eb90 43be 51ab 36be
00000070: 01cf 213e a1fb a43d 5ba2 983d 7634 0ebe
00000080: b06a be3d f6de a73c ff98 513e 1003 d9bd
00000090: 20cf bbbc 1e48 f53d b044 ebbc a4c4 ab3d
000000a0: 09fc c53d 5bc2 3f3e d833 92bd 09d7 a8bd
000000b0: 8d81 d93c e2c7 053e af92 2fbe bd2c acbd
000000c0: 8689 873d fb8c 9cbc c780 9b3c 45a6 12be
000000d0: 5175 a7bc 7958 06bc d6cb 2f3e 419a 34be
000000e0: 8441 5c3e 659f 443e 77b8 95bd e2ed 11be
000000f0: a51b 2c3e 6dc4 0b3e ac58 323e b3b9 96bd
-0.19740993 0.22112472 0.08531022 -0.14053923 0.023273455 0.009124946 -0.13806738 0.03216691
0.0104609085 0.18830031 0.14889884 -0.03341414 -0.026405457 -0.0005724193 0.11483492 0.035325743
-0.00054847286 -0.17899083 0.004534086 -0.13751309 -0.07385062 -0.16998605 0.1581799 0.019735754
0.10007326 -0.10682791 -0.1909825 -0.1783879 0.15801622 0.08055807 0.07452842 -0.138872
0.09297693 0.020492058 0.2046852 -0.10596287 -0.022925913 0.11976646 -0.028719276 0.083871156
0.096672125 0.18726484 -0.07138795 -0.0824414 0.026551032 0.1306453 -0.17145799 -0.08406971
0.066180274 -0.019110193 0.018982304 -0.1432124 -0.020441683 -0.008199804 0.17167601 -0.17636968
0.21509367 0.19201429 -0.073105745 -0.14250901 0.1680742 0.13649149 0.17416638 -0.07359638

layer1.1.weight f4 [64]
00000000: 9eae 663f 7ea8 7e3f 7de6 853f f909 7b3f
00000010: 17fb 873f d2b1 793f 9791 813f 0e34 843f
00000020: 27f5 6f3f f457 763f 4a4d 7c3f a49b 723f
00000030: 5503 8a3f 330e 833f a2e0 a23f a9f8 833f
00000040: 2feb 783f ddb3 723f bf08 773f fa1a 813f
00000050: 5915 813f 0900 813f 66b4 833f 479b 7e3f
00000060: 2a96 813f 2713 7e3f 4f18 933f d85b 6d3f
00000070: 43e2 6e3f 57af 863f 6e9a 643f b7e4 7c3f
00000080: 1939 883f 8de2 713f 339f 7c3f 7dfc 713f
00000090: 1e0a 833f e25b 713f a60d 883f f8c3 803f
000000a0: a228 873f 7512 6b3f 1e3e 7f3f e434 663f
000000b0: ac16 823f 1998 703f 7b84 613f 1187 773f
000000c0: b234 793f 1ee9 833f db70 7c3f a9a6 663f
000000d0: c955 823f 25ad 8c3f 8daa 5a3f ba2c 6c3f
000000e0: 6325 893f 15ea 673f 5ea0 783f 87fe 883f
000000f0: dd74 693f e157 7f3f 1d13 743f eda5 703f
0.90110195 0.9947585 1.0460964 0.9806209 1.0623502 0.9753696 1.0122555 1.0328386
0.9373345 0.96227956 0.98555434 0.9476874 1.0782267 1.0238708 1.2724802 1.031026
0.9723386 0.948057 0.9649772 1.0086358 1.008464 1.0078136 1.0289428 0.99455684
1.0123951 0.99247974 1.1491793 0.9271827 0.93314 1.052226 0.8929814 0.9878649
1.0642425 0.94486314 0.9868042 0.9452589 1.0237463 0.9428083 1.0629165 1.0059805
1.0559275 0.9182504 0.9970416 0.89924455 1.0163169 0.9398208 0.88092774 0.9669047
0.9734603 1.0305517 0.98609704 0.90098053 1.018243 1.099034 0.8541649 0.9225575
1.0714535 0.90591556 0.971197 1.0702676 0.91193944 0.9974347 0.95341665 0.9400318

layer1.1.bias f4 [64]
00000000: b183 e3bd ff4f d4bb e700 32bc 5778 78be
00000010: af07 4dbe 30a4 1ebe 9f7f 91be 4027 e03b
00000020: 00bd 94bd b3d6 b1bd 88a7 79bd c665 28be
00000030: 16fd 0fbb 41c9 1cbd e50d 433e 7740 25be
00000040: ef88 a5bd 6367 b5bd 7c80 82be cd00 02be
00000050: 20fe 6bbd 1965 36be 5a9c 90be 1d8a c6bd
00000060: a052 fabd 8280 02be 06e7 413b f6d6 cdbd
00000070: 51ed 28be 6d65 98bd 3b24 2cbe 0cca 3ebe
00000080: 557b d3bd 6a0a d6bd fde7 a7bd bbee 1bbe
00000090: a586 cfbd 7cb5 9fbd 94fb b0bd 6fd3 8fbe
000000a0: 87ad 91bc 5b93 fbbd 989a 34bb b7bf d4bd
000000b0: eae2 47bd a5c2 cfbd 9760 0ebe eb9b 0cbc
000000c0: af87 f7bc d6b1 72be bc3b 9abe 6f7c c6bd
000000d0: f313 0abd 8fde 78bd 3d5a 31be 667b 28be
000000e0: 655f 883d 428a 12be 4b9b f3bd 7788 4fbc
000000f0: 1cc8 77bd aa93 f8bd ab6b 72bd e8bb dcbd
-0.111091025 -0.006479263 -0.010864473 -0.24264656 -0.20022462 -0.1549232 -0.2841768 0.0068406165
-0.072626114 -0.08683529 -0.060950786 -0.16445073 -0.002197092 -0.03827787 0.19048269 -0.16137873
-0.08082759 -0.0885761 -0.2548865 -0.12695618 -0.0576154 -0.17812003 -0.28244287 -0.09694312
-0.12222791 -0.12744334 0.0029587164 -0.10050766 -0.16496779 -0.074412204 -0.16810696 -0.18631762
-0.10326258 -0.10451205 -0.08198545 -0.15227787 -0.10133103 -0.07798287 -0.08641735 -0.28091
-0.01778294 -0.12283965 -0.0027557965 -0.10388129 -0.048800386 -0.101445474 -0.13904034 -0.008582096
-0.030216066 -0.23700652 -0.301237 -0.096917026 -0.03371043 -0.060759123 -0.1731958 -0.16453323
0.0665882 -0.14310554 -0.11894854 -0.012666813 -0.060493574 -0.1213754 -0.05918471 -0.10778028

layer1.1.running_mean f4 [64]
00000000: 336f 503e 0c65 d33e 9bd1 8f3e 553b 84bd
00000010: e725 873e 4498 a43d 0d5e cdbe d946 703e
00000020: 2d46 d43c 060c 903e 6a35 363e 4706 cf3b
00000030: b02b d8bd 93c3 e7bc f0b8 bb3e 0026 6a3d
00000040: 5ab8 98be bd7e debe 12be ff3d 16c8 943d
00000050: 10cb b23e c263 493d f017 c03e 9359 8f3c
00000060: e84f 673e 5760 7dbe 0ffa f3be 3aba e8be
00000070: 2432 1abe eb04 673c a33d e33c 6424 a2bc
00000080: 9b5d 4a3d f10a d13d 97e0 f5bd 820d 523d
00000090: dad0 75be b1df 65be 12c6 7ebb 11d2 8c3e
000000a0: 3472 c5bb a811 1fbe b312 b63d 9e7f 01bd
000000b0: 2789 033f cc58 893e 25d2 56be d77b 3ebf
000000c0: e2bd 6d3c bdc3 0a3e 3696 633e d12b 27bc
000000d0: f872 2abe 6f05 1cbe 4315 023f ac70 06bf
000000e0: 3606 c93e cc5b b93e b179 103e 63b2 90be
000000f0: c8a0 e8bc 8d27 d0bd 51c0 79bd 6294 cabe
0.20354919 0.4128803 0.28089604 -0.06456629 0.26396105 0.08036855 -0.40110818 0.23464526
0.025912369 0.28134173 0.17793813 0.006317887 -0.10555208 -0.0282915 0.36664534 0.057165146
-0.2982815 -0.4345607 0.12487425 0.07264726 0.3492055 0.049167402 0.37518263 0.017498767
0.22589076 -0.24743782 -0.47651717 -0.4545458 -0.1505819 0.014100294 0.027739352 -0.019792743
0.049405675 0.10207165 -0.12005728 0.051282413 -0.24005452 -0.22448613 -0.0038875383 0.27504018
-0.006025577 -0.15534079 0.08890285 -0.031615846 0.5138115 0.2682556 -0.20978601 -0.74407715
0.014510604 0.1355123 0.2222527 -0.010203318 -0.1664542 -0.15236448 0.5081369 -0.52515674
0.3926255 0.36202848 0.14108922 -0.28261098 -0.028396979 -0.10163794 -0.060974423 -0.39566332

layer1.1.running_var f4 [64]
00000000: 908f 643d 0d3b c33b 704d b03b 4a1c 623c
00000010: 953a d03b 5a42 8d3c 9b1b a73b e3d7 173c
00000020: 29ff 823d f105 d23c fac7 0a3d cc22 9d3d
00000030: 90d3 e23c 499e 4e3b d223 263d c75e 0f3c
00000040: 38fe 103d 8ccd ee3b 834e 163c 9656 ad3c
00000050: 29b9 893d 9e5b a13b 9d7c 9f3b 0e33 de3b
00000060: bce7 8a3b 450b 2c3d 09f3 d63c 1baa b13c
00000070: 57a1 2f3c 1391 003d db4e d33c 2905 863b
00000080: 42bb 4d3c c5ff 333c 770d cb3c daeb ba3c
00000090: 74e1 e93b 1138 ec3c d133 ad3b 053f 343c
000000a0: 2d06 e93c 6fd9 b53c 65da 0d3d 5e07 323d
000000b0: e320 173d 1c21 1e3d 2913 423d ceb1 173d
000000c0: 5587 453d e6f4 323c 6fe1 c33b 5be3 3e3c
000000d0: c353 553c 15d5 363b 1253 2b3d 4788 4e3d
000000e0: 4fea f03c cf55 d13c b78f 713d 3897 f23b
000000f0: c382 3f3d 56fe e73b cbb3 753c a57e e43c
0.055800974 0.005957967 0.005380325 0.01380069 0.00635464 0.017243553 0.0050997264 0.00926778
0.06396324 0.025637599 0.03388212 0.076726526 0.027688771 0.003152745 0.040561505 0.008750624
0.035398692 0.0072876867 0.009173992 0.021159451 0.067247696 0.0049242517 0.00486715 0.0067809885
0.0042390507 0.042002935 0.026238935 0.021687558 0.010719619 0.031388354 0.025794437 0.0040899706
0.012556853 0.010986273 0.024786694 0.02281754 0.007137472 0.028835328 0.005285718 0.011001353
0.028445328 0.022198407 0.034632105 0.043464057 0.036896598 0.038605794 0.047381554 0.037034802
0.048224766 0.010922646 0.0059778015 0.011650885 0.013020459 0.0027898003 0.04182727 0.050422933
0.029408602 0.025553612 0.058974948 0.0074032806 0.046755563 0.0070798798 0.014996479 0.02789242

layer2.0.weight f4 [61, 64]
00000000: 1e23 753d 9fbe f83c 4b44 ca3c 1cbb 3abd
00000010: ffb4 09bc 39f2 02bc 337a eabc 6a09 b23d
00000020: 788a 153c daaa 88bd 55f9 a33c b9e8 35bc
00000030: 8396 41bc f48b 483d 48c0 93bb 1d25 19be
00000040: e10b 57be 9916 65bc 0b8b 1cbd be12 383b
00000050: ec5c 553d e7fe 9ebd a29a 89bd 7a22 963d
00000060: fcfb aebc a4eb cfbd 19c4 fbbd 97d9 32bd
00000070: f11a 9a3d f91f 9f3c 6092 10be b1a3 803c
00000080: 0c8a b5bc 0410 a2ba 5c91 b03c a48d b63c
00000090: 4dd6 31be beda 41be 0efb e7bb bfd6 fdbb
000000a0: f7e4 a13b c1fe 83bd 4193 90bb 30b4 e03c
000000b0: fc55 f8bb 7538 7e3c d320 26bd 3a9b 04be
000000c0: 4062 8a3c bde2 09bc 2841 a73a 4637 cb3d
000000d0: 99b8 2a3d 9317 063d 22c1 543d 8a1b a23d
000000e0: 58db 2eba f792 143d 0f89 26bd ea05 96be
000000f0: 7f0b b5bd 0bac 21bd 49d8 40bd 0b23 0bbd
00000100: 16cd d0bb 5a3f 613d 992b 953d cbdb 67be
00000110: dbd0 4abd a5b7 25bb e21b 90bc ae5d 003e
00000120: 9c60 a1bc 944e 33bd 7aaa 643c ae54 95bb
00000130: 2d56 813d e99f db3d 4634 46bd 95e3 c8bd
00000140: f429 b83c bfff 4d3d c6fd 04be fbac a23c
00000150: 4034 183d 6996 19be 580f 10bd cf9a 7a3c
00000160: 8c6f b5ba 9760 dc3c d1be d1bc 86ed 8d3d
00000170: 0f27 d1bb 3439 1b3d 590e a13c 31b2 ecbc
00000180: f260 f53d cb81 31bd 3edc 00be 8661 24bd
00000190: 71cb 643c f11e a93b 119d b9bc e24b 4ebe
000001a0: bac4 72bd f702 78bc d276 27bb d040 0b3d
000001b0: d5de f63c 871f acbd 7479 d8bd 332e a53c
000001c0: c28e 1dbc cb88 8abe 17c1 6dbe f3f8 323d
000001d0: ca2f c53b b5c3 f43d 2de0 ab3c 11e4 a2bd
000001e0: b485 bf3c 9df9 383c 382f 413d ff70 26bd
000001f0: 5fe4 033c f778 cdbc c665 8a3d 79e9 723d
00000200: 17d6 04bd d4bf dbbb c5bd 8cbb d7cf 683c
00000210: 618f 85bc 39b0 12be 753e 18bc 34fb 653c
00000220: 702d a0bd 9a30 10bd 4662 e6bd 7e75 333d
00000230: 06da 063d 2388 a03d 5b60 5f3c 1ff5 12bb
00000240: 9207 21bb f0e9 5f3d 5f75 80bc a0aa 883d
00000250: bcb9 76be 2fc3 93bc 8339 07bd c436 ad3d
00000260: f59d 89bd e9de 36be ac6f ba39 2a7f 3ebd
00000270: 44fc 1abd 780a 7a3c 0198 59bd a3c0 a1bd
00000280: 0359 d43d 9046 f9ba f5ab 7b3c d0e0 6abd
00000290: 3c69 8f3d 6fb5 f53c 4eb0 30bd 0929 9bbc
000002a0: f409 3e3d cea8 7ab9 00b0 76be 3a8a 203c
000002b0: db58 0ebc b354 003c 976e 873d a104 5e3d
000002c0: d781 bcbd 28b7 b1bb 40ea ff3b 5398 39be
000002d0: 891f 8a3d cd2e 23be c944 f4bd 5bb5 41bd
000002e0: ce85 1bbe a8ea 6abe 38e2 12bc 2f13 053e
000002f0: 455a 9d3d 685c a6bc abfb 94bd 3d4e 983c
00000300: cfbe b13c 45f1 b2bc 48c4 b33d 1947 72bd
00000310: 6591 c2bc 772e 30be 744e 6a3c 1a87 0d3e
00000320: 9d37 f23c 7eb2 993d 433c aabd a162 11be
00000330: 2dfa 8b3c cf51 a03d d773 073d 1fce 99bd
00000340: d44e 0ebe ab94 9dbd 7c4d c5bb 1a4f d93d
00000350: 6778 2d3c a920 acbd 810d f7bb 3579 0fbd
00000360: aec5 233e cd0e 1f3d 7164 4fbe fae1 093d
00000370: 6637 433d a194 4fbc 2f69 a6bd 3c84 a9bd
00000380: d123 7ebe 3a27 b63d bd0b 093d 00a6 60bd
00000390: 8d87 be3d ffe2 29bd 2d23 d4bc 1b47 1cbe
000003a0: b761 23bd d886 0fbd 4268 183b 4f7e 4c3d
000003b0: 8ed8 933d 09a0 8ebb 72b5 873d 3d51 bdbd
000003c0: 6bf2 ae3d 8597 5ebe 0bdc 55bd e496 dc38
000003d0: 759b 853d 4856 043e 061c b13d 2a20 cb39
000003e0: 3148 e33c 24be 2a3d c5f7 05bc 3acc 0d3e
000003f0: 1892 973d cc1d e3bc 868f eebd 961e 353d
0.059847943 0.030364333 0.024690768 -0.045588598 -0.008404969 -0.007992321 -0.028622722 0.08693202
0.009127252 -0.06673212 0.020016352 -0.011102849 -0.01181567 0.048961595 -0.0045090057 -0.14955564
-0.21000625 -0.0139824385 -0.03821854 0.0028087343 0.05209057 -0.077634625 -0.06718947 0.07330795
-0.02136039 -0.10152367 -0.12293262 -0.04366454 0.0752467 0.019424425 -0.14118338 0.015703054
-0.022160552 -0.0012364392 0.021553688 0.022284336 -0.17366906 -0.189311 -0.0070794886 -0.007746547
0.004940625 -0.06445075 -0.0044120853 0.02742967 -0.0075786095 0.01551639 -0.040558647 -0.12949839
0.016892552 -0.008415875 0.0012760507 0.09922652 0.041679952 0.032737326 0.051942 0.07915409
-0.0006670258 0.03627297 -0.040658053 -0.29301387 -0.08840083 -0.039470714 -0.047081266 -0.033968966
-0.0063721044 0.054992057 0.07283706 -0.22642438 -0.049515586 -0.0025286463 -0.01759142 0.12535736
-0.019699387 -0.04377611 0.01395666 -0.0045572137 0.06315265 0.1072386 -0.048389696 -0.09809033
0.022480942 0.050292727 -0.12987432 0.019857874 0.037159204 -0.14998783 -0.035170883 0.015295698
-0.0013842448 0.026901526 -0.025603684 0.069300696 -0.00638283 0.03789635 0.019660162 -0.028893562
0.119813815 -0.04333667 -0.12584016 -0.040132068 0.01396452 0.005161159 -0.022657903 -0.20146134
-0.059269644 -0.015137426 -0.0025553 0.033997357 0.030135551 -0.08404451 -0.1057004 0.020163631
-0.009616556 -0.2705749 -0.23218189 0.043694448 0.00601766 0.11951391 0.020980919 -0.079536565
0.023379184 0.011289981 0.047164172 -0.040635105 0.008050053 -0.025082095 0.06757693 0.059304688
-0.032430734 -0.0067062173 -0.004295083 0.014209709 -0.01630372 -0.14325036 -0.009292235 0.014036942
-0.078211665 -0.0352026 -0.11249213 0.04381322 0.032922767 0.07838466 0.013633813 -0.0022423936
-0.0024571163 0.05466646 -0.015680967 0.06673169 -0.2409429 -0.018037407 -0.03301383 0.08457711
-0.06719581 -0.17858471 0.00035559887 -0.04650799 -0.037838235 0.015261285 -0.053123478 -0.07898071
0.1036854 -0.0019018222 0.015360822 -0.057343304 0.07002494 0.02999374 -0.043136887 -0.018940466
0.04639621 -0.00023904743 -0.24090576 0.009798581 -0.008688177 0.007832694 0.0661289 0.054203633
-0.092044525 -0.0054234453 0.007809907 -0.18124513 0.06744296 -0.15935822 -0.11927182 -0.047292095
-0.15187761 -0.22941077 -0.008965068 0.12995599 0.07683233 -0.020307735 -0.07274564 0.018591994
0.02169743 -0.021843562 0.08777672 -0.059149835 -0.02375097 -0.17205225 0.014300931 0.13821068
0.029567534 0.07504748 -0.08312275 -0.1419778 0.017087067 0.07828104 0.033069458 -0.075100176
-0.13897258 -0.07694372 -0.0060211997 0.106107906 0.010587788 -0.08404667 -0.0075394516 -0.0350277
0.15993378 0.038832474 -0.20253159 0.033662774 0.047660254 -0.012669713 -0.08125531 -0.08277175
-0.2481835 0.088942006 0.03345846 -0.05484581 0.09303198 -0.041476246 -0.02589568 -0.152615
-0.03988811 -0.035040706 0.0023255502 0.049925145 0.07219039 -0.004352574 0.06626405 -0.092440106
0.08542331 -0.21737488 -0.052211802 0.00010518523 0.06523792 0.12923539 0.08647923 0.0003874314
0.027744384 0.04168524 -0.008176749 0.13847438 0.07400912 -0.02772417 -0.11648469 0.044218622

layer2.0.bias f4 [61]
00000000: 05da 7f3d de04 2fbd 37f4 ff3d 663a 5b3d
00000010: db0d 383d 7e06 d83d 8461 67bc 8906 f0bc
00000020: ad88 bb3d cac8 0abd 3340 c4bd 66a7 5bbd
00000030: 601a c03c c637 08bd 039e 9f3d b45a 88bd
00000040: ed93 123d 95b1 0cbd 16bc 8cbd e9b4 afbd
00000050: 5e99 76bd 830e acbd ba6b 313c 60ee a53d
00000060: cf97 893d 7af0 5c3d e49b 63bd fe2d ffbd
00000070: 32b2 543d d68f bfbd c47d ba3d ff23 73bc
00000080: f644 5a3d 8855 6dbc 9bb8 cbbc fe95 453d
00000090: 473a be3c 19f3 dbb9 44fc b33d d7c6 e6bd
000000a0: 40d0 3c3d c2df 0e3d 17b2 64bd b2b3 8b3d
000000b0: 98e0 29bd 116b 6c3c 189d bdbc c65f a7bd
000000c0: 5a7b 0c3d e146 57bd 3142 983d 6b74 7a3c
000000d0: 53dd b0bb f96f 8f3d 565e 63bd 9a99 2dbd
000000e0: fe4f 52bd 0016 f8bd 0664 81bd d7a2 e03b
000000f0: 5e05 693d
0.06246378 -0.04272925 0.12497752 0.05352249 0.04493509 0.10548113 -0.014122371 -0.029299991
0.09156928 -0.033882894 -0.095825575 -0.05362644 0.023450077 -0.033256315 0.0779381 -0.06657925
0.035785604 -0.034349043 -0.06871812 -0.08579428 -0.060204856 -0.084012054 0.010828907 0.08102107
0.06718408 0.053940274 -0.05556859 -0.12459944 0.051927753 -0.093536064 0.09106019 -0.014840125
0.053288423 -0.014485724 -0.0248683 0.048238747 0.023221148 -0.00041952057 0.0878835 -0.112683944
0.04609704 0.03488136 -0.055833902 0.068213835 -0.041473955 0.0144298235 -0.023146197 -0.08172564
0.034297325 -0.05255783 0.074345 0.015286545 -0.0053974777 0.07003779 -0.055509888 -0.042382814
-0.051345818 -0.12113571 -0.06317906 0.0068553495 0.056889884

layer2.1.weight f4 [61]
00000000: 2e1b 8c3f 4952 8d3f b430 823f befa 893f
00000010: 2a76 7c3f 829f 7f3f 7bb1 8f3f ae41 843f
00000020: 4260 903f 5772 863f 3a81 833f fb8f 863f
00000030: d131 843f 4208 883f 063c 823f 07e7 7d3f
00000040: 5459 833f 3a8d 7b3f 8559 7d3f e481 8f3f
00000050: 2909 803f 5f94 883f 8f82 8d3f d49f 863f
00000060: 424a 813f 50c7 7d3f a2f8 893f a2e2 823f
00000070: 602f 8a3f 49a7 7d3f d499 893f 087c 8d3f
00000080: de7b 913f 5277 7a3f c289 7e3f b8d5 913f
00000090: 14fe 853f 32ba 813f cfb1 773f 6986 903f
000000a0: 8a7b 853f 0494 8d3f 4e92 8c3f 6973 783f
000000b0: f899 803f 67c9 883f 59ed 7f3f 486d 8d3f
000000c0: 440d 883f 01d7 803f 410f 893f bb6d 8e3f
000000d0: b29c 893f 00f2 8d3f f451 833f 9821 833f
000000e0: 5c0f 913f a27d 863f bbf3 823f d3b4 853f
000000f0: 2163 8b3f
1.0945795 1.1040736 1.0171113 1.0779645 0.98617804 0.99852765 1.1226038 1.0332544
1.1279376 1.0503644 1.0273812 1.0512689 1.0327703 1.062752 1.0174568 0.99180645
1.0261636 0.9826237 0.9896472 1.1211514 1.0002795 1.0670279 1.1055468 1.0517526
1.0100787 0.9913225 1.0779002 1.0225413 1.0795708 0.9908338 1.075007 1.1053476
1.1365926 0.9783832 0.9942895 1.1393347 1.0468163 1.0134947 0.9675569 1.1291019
1.0428326 1.1060796 1.0982149 0.970511 1.0046988 1.0686463 0.9997154 1.1048975
1.0629048 1.0065614 1.070778 1.1127237 1.0750945 1.1089478 1.0259385 1.0244627
1.1332812 1.050709 1.0230631 1.0445808 1.0889627

layer2.1.bias f4 [61]
00000000: 6f8b 293e 9b94 213e dceb dd3d 7c34 193e
00000010: 68e0 c93c 7b6f a53d e1c0 083e 432e e33d
00000020: 327e 223e 1e4e 0d3e c8bb e73d 25b5 143e
00000030: a3c0 ef3d c38a 133e 0eb5 c33d 007a 423d
00000040: ca78 b63d d700 7d3c a11f 173d d011 083e
00000050: 2b41 953d 07af 183e 2f66 1c3e cdf6 f63d
00000060: 4c9c cb3d a160 2e3d 1131 153e 53b9 fc3d
00000070: 0fd5 293e 5186 d53c b3a7 273e d737 223e
00000080: 0086 233e 6e76 f83c 4c6a 263d 9524 2f3e
00000090: b6cd fd3d 614a b43d c0d9 91bc 5eb4 183e
000000a0: 9874 e63d 8c69 293e b9b6 1f3e df61 2bbb
000000b0: 72c8 913d 7dda 133e 97c8 9b3c 506c 263e
000000c0: 018f 153e 59be b13d 96b2 173e 3565 173e
000000d0: a559 2a3e 2fa5 1e3e a7de be3d 7959 d93d
000000e0: 7c3e 283e b061 053e 34be ad3d b952 073e
000000f0: 98cf 133e
0.16557096 0.15779345 0.10836002 0.14961427 0.024643138 0.08077904 0.13354827 0.11092808
0.15868452 0.1379933 0.11315113 0.14522226 0.117066644 0.14408402 0.09556018 0.04747963
0.089097574 0.015442095 0.036895398 0.13288045 0.072878204 0.14910518 0.15273355 0.12058792
0.09941921 0.04257262 0.14569499 0.12340035 0.16585182 0.026065024 0.16372566 0.15841614
0.15969086 0.03032991 0.040628716 0.17103799 0.12392752 0.08803249 -0.017804027 0.14912555
0.11252707 0.16544169 0.15597047 -0.0026150865 0.0711831 0.14438815 0.019016547 0.16252255
0.14605333 0.08678884 0.14814219 0.14784701 0.16635759 0.154927 0.09319811 0.10612769
0.16430086 0.13025546 0.08483544 0.1321515 0.1443466

layer2.1.running_mean f4 [61]
00000000: b4c2 e4be ef76 82be 8532 cabe 2132 97bc
00000010: 7d6e 28be 2780 5fbe 3afc edbe 807d 83bd
00000020: f08a babd a366 06bf e960 ecbe 0172 e7be
00000030: 6ffe a4be 4934 5cbe 8f88 96bd 6515 aebe
00000040: 622d 53be a5b8 50bd 9a9a 62be d29a b7be
00000050: 3ef3 fbbe 56d0 13bf aabe c5be 889a 9abd
00000060: aac7 dfbe 6a9c 73be e0a8 25bf 1b85 80be
00000070: 893e a6be 605b 25bf b1bc c1be e5fa 8dbe
00000080: 6b10 3cbe 989a bcbe 5c35 d3be d4d3 99be
00000090: 721b c9bd c58f 77be 79e9 86be 26ac b1be
000000a0: 384c 95be b531 f3be 0f4c 93be 5fb9 9dbe
000000b0: 2c32 dfbd c05d 04bf 1185 d6be aabd d3be
000000c0: 86fe 12bf f347 03bf ce65 cdbe 20a8 c1be
000000d0: 02e6 84bd 78ca 53be be28 64be 36a4 9cbe
000000e0: 5ffc b9be d61a bdbe 9e1a 84be a7ce bebe
000000f0: 8fd0 97be
-0.44679797 -0.25481364 -0.39491668 -0.01845652 -0.16448398 -0.2182623 -0.46481496 -0.064204216
-0.091085315 -0.5250036 -0.46167687 -0.45204166 -0.32225367 -0.2150432 -0.07350265 -0.34000698
-0.20622781 -0.05095734 -0.22129288 -0.35860306 -0.49209017 -0.5773977 -0.38622028 -0.07549006
-0.4370702 -0.23790136 -0.6471081 -0.2510155 -0.32469586 -0.6459255 -0.37839273 -0.2773048
-0.18365638 -0.36836696 -0.41251647 -0.30044425 -0.09819688 -0.24175937 -0.2635 -0.3470165
-0.29159713 -0.4749886 -0.28768966 -0.3080549 -0.108982414 -0.5170555 -0.41898397 -0.4135564
-0.5741962 -0.5128166 -0.40116733 -0.37823582 -0.06489183 -0.20682704 -0.22281167 -0.30594033
-0.36325356 -0.36934537 -0.25801557 -0.37267038 -0.29651305

layer2.1.running_var f4 [61]
00000000: db05 5d3f c77a 653f 8ca5 303f bac3 7a3f
00000010: ca79 2f3f 0a7f 593f 2e35 5a3f 8487 483f
00000020: 50e0 413f 3536 5c3f e822 6e3f 92fc 393f
00000030: 3767 413f 0db4 3b3f ac25 593f 6c4e 2f3f
00000040: 6250 893f cea8 463f e6a4 773f 87a4 833f
00000050: 8bd1 023f 95f1 553f b462 6f3f 6fd7 6e3f
00000060: ad5f 953f 0502 553f 9edc 7a3f 6eb8 dc3e
00000070: 4db6 543f 5426 883f 9c58 e13e f008 8a3f
00000080: 2523 6b3f a3fe 043f ac23 443f d6eb 603f
00000090: c7b8 383f 5fea 3e3f d9cd 143f 56fd 863f
000000a0: 05f9 153f f551 8c3f 5fe0 413f 96ed 2c3f
000000b0: 1a1e 2e3f d066 543f ccfa 5a3f 87fd 693f
000000c0: 649a 493f cb8c 673f 71de 5d3f acb7 283f
000000d0: 55f0 773f 1aeb 7c3f 5228 503f cdf3 8e3f
000000e0: c412 913f 5fbb 843f ab71 4c3f e987 643f
000000f0: 8e80 523f
0.8633706 0.8964047 0.69002604 0.97954905 0.6854521 0.8495947 0.85237396 0.7833178
0.757329 0.86020213 0.9302201 0.72651017 0.7554812 0.7332161 0.8482311 0.6847904
1.0727656 0.77601326 0.9673599 1.0284585 0.5110099 0.8357175 0.93509984 0.93297476
1.1669823 0.83206207 0.97992885 0.4310946 0.8309067 1.0636697 0.44012916 1.0783978
0.918505 0.51951045 0.7661693 0.8785986 0.7215695 0.7457637 0.581266 1.0546062
0.585831 1.0962511 0.7573299 0.6755003 0.6801468 0.8296938 0.85538936 0.9140248
0.78751206 0.9044921 0.86667544 0.6590526 0.9685109 0.98796237 0.81311524 1.1168152
1.1333852 1.0369681 0.79860944 0.8926988 0.8222741

layer3.weight f4 [61, 61]
00000000: c7ac b43c 59c9 b7bd 50af 49bc 939a b6bd
00000010: 5eff d3bd 1c24 f2bd f71b 01bd 9ffe dbbd
00000020: 84f3 0ebe d636 20bb 7380 b03c ea7b cbbd
00000030: 836a 1dbd bc0a 1cbe ef97 08be 8c58 e1bc
00000040: beaf 2fbe a75d 8dbd ceea db3c c0c8 97bc
00000050: 5f07 99bd 1a30 cc3c 415c fbbb 911f de3b
00000060: f219 f13c ac2c d5bd cb6f d3bc f89d e5bd
00000070: b8be 0abe 17b7 32ba 732f 90bd 4b53 bab9
00000080: d75f 9bbd d1c2 90bd 6085 68bd 35ba 06bd
00000090: 30a5 adbc 0be5 9fbd d475 41bd 1a37 023b
000000a0: 2545 8dbd 7325 21bd 1ee7 82bd 70a2 1c3b
000000b0: 55d7 b8bd 3539 1c3d 62ba c83c d1f0 13bc
000000c0: 32de 33bd f9d2 e1bd 305e a83a cdd3 4abd
000000d0: f88a a0bc d4fe 87bd c92a 69bd 5ec9 cdbc
000000e0: b0bb 48bd ca48 803c af28 b0bd d937 13bc
000000f0: 58da 253b 0ee6 b5bd f2d2 88bd 7eda 40bd
00000100: 5f41 ebbd 4d5c 92bd cd26 babd fbdf 8fbd
00000110: c5e1 15be af8f 12be 4bea 51bc 5d57 e8bd
00000120: 5a6b 5fbd e6c5 abba b846 0ebe 914c 6b3c
00000130: 6b54 c9bc 988e 28be 8751 fcbd a915 a73c
00000140: 9c13 3ebd 9a74 3dbd e640 693c 7fdf 1a3d
00000150: fe9e b43c e99f bcbd ec27 03be f221 68bc
00000160: 7daf 96bd c062 1dbe 9f98 733d eb42 2fbe
00000170: 7e9e 87bc bb67 1cbd 3ad7 0f3c ce55 f3bc
00000180: 9001 10bd be75 61bd 61fb 86bd 9127 b1bd
00000190: ab3d c8bd 2461 c5bd 71a9 56bc d651 8fbc
000001a0: 2783 39bd 6b4a 4ebc 27bb 123c b39e 273d
000001b0: 81ec 71bd 1375 ce3b 3710 c0bd 34df 273d
000001c0: f916 6fbd 01a6 1e3d 5b15 4c3c 9070 80bd
000001d0: 8336 ec3c 9877 8dbc f563 cdbd a615 1fbe
000001e0: b0f6 bbbc b828 82bd c12c 483c 13b1 783c
000001f0: 1b7d 63ba b4de 433d 5e34 32bc 3421 0cbe
00000200: 33f7 c0bd 72e0 69bd 4706 19be 1933 533d
00000210: 0c5e 9bbd b2af 99bd 00cc 01be 3e0c fbbd
00000220: 0c40 e8bd eae5 f73c 9fec e0bd 1be2 42be
00000230: aa5b 1dbe 750c 15bd b8bc 40be cdf1 b3bd
00000240: 5546 f63c 31d2 75bd 65ac d2bd 47a7 04be
00000250: a5fb 2d3c 3e05 cabd ccb2 aebd e053 1fbd
00000260: 4a94 89bd 72f6 13be f995 0e3c d3bf 04be
00000270: dd51 b6bd 0bab 5cbd 48b6 093c 51e4 0bbe
00000280: cf0a b23c ed53 8cbd 4b09 913c 46c2 883c
00000290: b938 8e3c fd78 13be a90e 84bd 07a9 6c3c
000002a0: 01e2 65bd 3bfc a3bd 610f 93bd 6e80 30be
000002b0: a545 51bd acb1 8fbd 6fe7 183d d3c9 0ebd
000002c0: 16e1 8b3c 6bd9 8ebd 7014 52bd a392 593d
000002d0: c310 2bbe cd8f 04be 29d5 60bd fd9a f4bb
000002e0: 481e 10be c9ca 17be cb6f 97bd b171 dfbd
000002f0: 5a6e 1ebe 8138 5b3b 7542 8abd b59c f13c
00000300: 7687 f13a 527b 063d ecfa c6bd 825a dabd
00000310: 3b95 983a 0c85 45be b1b5 3ebd 6462 32bd
00000320: 73c6 a6bd ad0d 1fbe 674c b1bd de34 9fbd
00000330: 683c 40bd 0e08 ecbc bf20 183d 454d 5dbd
00000340: 6f1a 50bd 71fe 713c ced8 c2bd c49e fcbd
00000350: 8359 853d 61a2 1dbe 6dbe 3abe c951 dfbd
00000360: eff2 b2bd 960c 5a3d de0a 843d b14c ebbd
00000370: 0981 b1bd c0b3 09be 67b5 24bc 99c3 01be
00000380: 4357 ebbd 0a99 88bd 47f3 b4bd 7f20 3ebe
00000390: b3ed bbbd 6bb1 bb3d a785 b3bd 298b a3bd
000003a0: cb98 1cbe f39a 2dbd b35c 7ebd 4835 e03c
000003b0: eeea a8bd d5f4 f23a b101 7dbd 6994 aebc
000003c0: 2148 d8bd 2470 883c 6a0e 93bd 02c9 0dbd
000003d0: f2f3 a0bc 2e40 52bc 7630 4bbe 4cad 21be
000003e0: 8428 d6bc 63d5 44be 7bc2 0bbe 52ea 6bbd
000003f0: 5ddf 96bd b01b 33bd e348 81bd 7a79 47bd
0.022055043 -0.08973951 -0.012309864 -0.089162014 -0.10351442 -0.118232936 -0.03152081 -0.107419245
-0.13960081 -0.0024446747 0.021545624 -0.09935744 -0.038431656 -0.1523847 -0.13339208 -0.027508043
-0.17156884 -0.069026284 0.026845362 -0.018528342 -0.07472109 0.02492528 -0.0076709096 0.0067786654
0.029431317 -0.10408911 -0.025810143 -0.11211771 -0.13549316 -0.00068174436 -0.070403 -0.00035538743
-0.075866394 -0.07068408 -0.05676782 -0.032892425 -0.021196932 -0.07807358 -0.04723151 0.001986927
-0.06897954 -0.039342355 -0.06391738 0.0023900531 -0.09025446 0.038140494 0.024502937 -0.009029583
-0.043913074 -0.11026568 0.0012845453 -0.049518395 -0.019597515 -0.066404015 -0.05692557 -0.025120433
-0.049007118 0.015659709 -0.0860151 -0.008985483 0.0025307145 -0.0888177 -0.066808596 -0.04708337
-0.11487078 -0.07146511 -0.09089432 -0.07025143 -0.14636905 -0.14312623 -0.012812207 -0.11344788
-0.054545738 -0.0013105243 -0.13894165 0.014361517 -0.024576386 -0.16460645 -0.123202376 0.02039607
-0.04640542 -0.046253778 0.014236664 0.0378108 0.02204847 -0.09210188 -0.12808198 -0.014168249
-0.073576905 -0.15369701 0.059471723 -0.17115371 -0.016555067 -0.038184863 0.008779341 -0.029704
-0.03515774 -0.05504393 -0.065909155 -0.08650125 -0.09777387 -0.09637669 -0.013101921 -0.017495077
-0.045291092 -0.012590985 0.008955753 0.04092283 -0.05906344 0.0063005774 -0.09378093 0.040984347
-0.058371518 0.038732532 0.012456263 -0.062714696 0.028834587 -0.01726894 -0.10028831 -0.15535602
-0.022944778 -0.06355423 0.012217701 0.0151789365 -0.0008678005 0.047819808 -0.010876743 -0.13684541
-0.094221495 -0.057098813 -0.14943801 0.051562402 -0.075862974 -0.07504214 -0.12675476 -0.122581944
-0.11340341 0.030260999 -0.10982632 -0.19031565 -0.15366998 -0.036388833 -0.1882199 -0.08786354
0.030062834 -0.060014907 -0.10286788 -0.12954436 0.010619079 -0.09864281 -0.085301965 -0.03889835
-0.06717737 -0.1444948 0.008702748 -0.129638 -0.08902333 -0.053874057 0.008405276 -0.13661315
0.02173367 -0.06851945 0.017704627 0.0166942 0.017361032 -0.14401622 -0.06448109 0.014444596
-0.056123737 -0.080070935 -0.07180668 -0.17236492 -0.05109181 -0.0701631 0.037330087 -0.034860443
0.017075103 -0.06975063 -0.051289022 0.05311836 -0.16705613 -0.1294548 -0.054890785 -0.007464765
-0.14074051 -0.1482345 -0.0739437 -0.10910357 -0.15471783 0.0033450427 -0.06750957 0.029493669
0.0018427211 0.03283245 -0.09715828 -0.10661794 0.0011641154 -0.19289035 -0.046559993 -0.043550864
-0.0814332 -0.1553256 -0.08657151 -0.077737555 -0.046932608 -0.028812435 0.037140604 -0.054028768
-0.05080646 0.014770136 -0.095140085 -0.1233497 0.06511214 -0.15393974 -0.18236704 -0.10904271
-0.08737742 0.05323466 0.06447385 -0.11489237 -0.0866719 -0.13447475 -0.010053015 -0.12672271
-0.11491253 -0.06669815 -0.08835464 -0.18567084 -0.09176197 0.09164699 -0.087657265 -0.07985527
-0.15292661 -0.0423841 -0.062100124 0.027369156 -0.08247934 0.00185361 -0.06176919 -0.021311002
-0.105606325 0.016655035 -0.07180484 -0.034615524 -0.019647572 -0.012832684 -0.19842705 -0.15788764
-0.026142366 -0.19222026 -0.13648407 -0.057596512 -0.07366822 -0.043727577 -0.0631273 -0.048699833

layer3.bias f4 [61]
00000000: 489b 31bd a2bb 73bc 80d3 d73a dae0 06bd
00000010: 3161 32be 42ad 6fbe 1951 95bd 0011 1fbe
00000020: fc71 0dbe d4f8 c9bd 6b14 b5bd 172b 86bd
00000030: da25 87bd d4ab 2abe ff3e 33be 8e65 3dbe
00000040: 09c5 d3bd 334b 46be 8a94 27be d833 1fbe
00000050: 1178 883c 0076 c4bd 8c2d b93b 2557 94bd
00000060: 7e28 4abe aeb5 a3bd 50fc 12be 1e7d 88bd
00000070: a426 35be 59d3 26be 6a87 8dbc d69d 22be
00000080: 216d cabd 294e 103c 704d e5bd 064e f4bd
00000090: be71 0bbe 4ec8 33be 24e1 12be 71b6 d5bd
000000a0: 1ed0 95bd 9fc6 a5bd 1a83 463c 0676 36be
000000b0: 631c e2bd 1b76 13be 0635 d3bd 631e b3bc
000000c0: 356a 7abd 21ce a9bd c754 b7bc 9eac 89bd
000000d0: bf8a 50be 4741 b9bd 860d 5bbe 74af 31be
000000e0: a94c 14bd 31e3 26be f899 d7bd bebb b6bd
000000f0: 576b 0a3d
-0.04336098 -0.014876278 0.001646623 -0.03292928 -0.17419888 -0.23405936 -0.07290859 -0.15533829
-0.13813013 -0.09861913 -0.08841785 -0.065511875 -0.065990165 -0.1666711 -0.175045 -0.18495771
-0.10340316 -0.19364624 -0.16365257 -0.1554712 0.016658815 -0.09592819 0.0056511816 -0.07243184
-0.19742009 -0.07993637 -0.14354062 -0.06664489 -0.17690521 -0.1629156 -0.017276485 -0.15880522
-0.09884096 0.008807697 -0.11196411 -0.11928944 -0.13617608 -0.17556879 -0.14343697 -0.104351886
-0.07315086 -0.080945246 0.012116218 -0.1781846 -0.110405706 -0.14400522 -0.10312848 -0.021865075
-0.061136443 -0.08291269 -0.022379292 -0.06722377 -0.20365427 -0.09045654 -0.21391878 -0.17352086
-0.03620592 -0.16297604 -0.10527414 -0.08922528 0.033793774
